model/best_model.pth (torch, 682091 bytes, 43 tensors)

Encoder.encoder_cnn.0.weight f4 [32, 1, 3, 3]
0.08344514 -0.118961096 0.007779343 -0.054002047 -0.23948607 -0.061414223 -0.04908892 0.03898098
0.18029428 -0.13526799 -0.21422158 -0.11634053 0.32109228 0.23948085 0.3294573 0.24544662
0.16980626 -0.0025956954 0.09176071 0.1110461 -0.017449018 -0.2671709 -0.14500476 0.15927051
-0.26213995 0.28366756 0.2658402 -0.26841745 0.056852106 0.16376732 0.03432848 0.16444834
-0.26741892 0.22722875 0.2131402 -0.08374523 -0.27705207 0.054639794 -0.23589477 0.1080684
-0.06139985 0.058837906 -0.17825696 -0.11586106 -0.047395647 -0.05368919 0.11404994 -0.15625253
0.3620396 0.20334457 0.24260542 0.30683038 -0.14067711 -0.22215122 -0.013512804 -0.14175709
0.12597959 0.24014401 -0.34497845 0.022044953 -0.07949868 0.0821155 0.14412901 -0.30740577
0.16161448 -0.07906736 -0.30171588 0.042524453 0.025863485 0.043643367 -0.11787711 0.27732137
-0.30524287 0.00020242264 0.27256784 0.04508462 0.010982558 0.27522287 -0.18143663 0.06693603
-0.035471328 -0.047184948 -0.12985969 -0.2617848 0.053213842 -0.23488079 0.23561712 0.03364523
-0.31627202 -0.055032633 -0.12772213 -0.30485916 -0.15223674 -0.08936694 0.23057424 0.2760725
-0.12244371 -0.15186983 0.09848623 0.10716697 -0.24545763 -0.09346187 0.0020249104 -0.03853193
0.14767434 0.19085546 0.33111566 -0.18725096 0.2816099 -0.13902712 0.14372423 0.09838766
0.06392348 0.105343215 0.15521885 0.28342187 -0.15273839 -0.31270325 0.1296756 -0.29222038
-0.13667269 0.25525835 0.13773654 0.16290437 0.10871448 -0.3047601 -0.32137194 0.058498174
0.14291392 0.070606336 0.16560541 -0.2881715 0.22289805 -0.06770019 -0.277005 -0.18173078
0.21114144 0.14407346 -0.31519628 0.2566978 0.13566905 0.076646864 0.02747484 -0.1253652
-0.10633188 -0.20666045 0.15861651 -0.16322972 0.037758756 -0.42648223 0.011753312 0.052674096
-0.33446932 -0.01397742 -0.15006009 0.017207233 0.08111493 -0.30662465 0.112681694 0.30043614
0.162706 0.3692133 -0.1962241 -0.29555276 -0.06951258 -0.21024959 -0.25670275 -0.04072732
0.2569023 0.12649025 0.05840623 0.121704146 0.04024727 0.10283629 0.30389136 0.14677538
-0.27134654 0.13092819 0.1101304 0.074969545 0.19341663 0.30970502 -0.21080086 0.20986547
-0.11715389 0.33441985 -0.25613815 -0.13370988 -0.18949051 -0.003513125 -0.1914768 0.25662467
-0.3061119 -0.2965197 -0.15978616 -0.22164293 0.2369172 -0.13979308 -0.26573682 0.12328452
-0.22911051 -0.08459583 -0.1280458 -0.13202691 -0.16564874 -0.03852418 0.2782488 -0.25269985
-0.078377776 -0.24011111 -0.27457154 0.17144372 -0.17937486 0.071991704 0.08751093 0.2809228
0.08437754 0.09138735 0.31988254 0.006815255 -0.31962407 -0.28753 -0.16571772 -0.09627369
0.25621757 -0.16436541 -0.2018958 -0.069901265 -0.0692583 -0.034527797 -0.20953746 -0.31709105
0.07712071 0.10526271 0.13162977 -0.2506148 0.060434867 -0.08185633 0.031058878 -0.14763094
0.2248678 0.085869886 0.27657717 0.054446414 -0.08241867 -0.29849103 0.21584855 0.2680469
-0.21455537 -0.04577626 0.1296989 0.04441452 -0.15327281 0.14092536 -0.16179845 -0.2974326
00000000: 49e5 aa3d e0a1 f3bd dce9 fe3b 4031 5dbd
00000010: d63b 75be 7b8d 7bbd 7711 49bd 85aa 1f3d
00000020: 109f 383e b183 0abe e75c 5bbe f243 eebd
00000030: 3566 a43e 783a 753e a1ae a83e 5c56 7b3e
00000040: b1e1 2d3e 8b1c 2abb 0aed bb3d 236c e33d
00000050: 3ef1 8ebc a0ca 88be 217c 14be cf17 233e
00000060: 3537 86be e03c 913e 351c 883e 036e 89be
00000070: c1dd 683d 9fb2 273e 059c 0c3d 2565 283e
00000080: 22eb 88be a7ae 683e 6d41 5a3e 9f82 abbd
00000090: c5d9 8dbe facd 5f3d 668e 71be f752 dd3d
000000a0: 697e 7bbd 0400 713d fe88 36be 9048 edbd
000000b0: f021 42bd 32e9 5bbd 0493 e93d aa00 20be
000000c0: 415d b93e 8f39 503e 8e6d 783e df18 9d3e
000000d0: a90d 10be 9c7b 63be cf64 5dbc c528 11be
000000e0: cb00 013e 50e8 753e 04a1 b0be 9e97 b43c
000000f0: 34d0 a2bd 2c2c a83d 8e96 133e 4a64 9dbe
00000100: 447e 253e 11ee a1bd 817a 9abe 1f2e 2e3d
00000110: a9df d33c 63c3 323d 8e69 f1bd 11fd 8d3e
00000120: cb48 9cbe 6a41 5439 038e 8b3e a7aa 383d
00000130: 30f0 333c 03ea 8c3e 86ca 39be c215 893d
00000140: 624a 11bd 0145 41bd f0f9 04be a808 86be
00000150: c2f6 593d 9784 70be 9d45 713e 95cf 093d
00000160: 68ee a1be e669 61bd 97c9 02be 8016 9cbe
00000170: f3e3 1bbe 0406 b7bd a71b 6c3e 6059 8d3e
00000180: c5c3 fabd c483 1bbe 26b3 c93d 5b7a db3d
00000190: 3f59 7bbe f068 bfbd 5cb4 043b a8d3 1dbd
000001a0: f137 173e 9d6f 433e fe87 a93e b7be 3fbe
000001b0: 2c2f 903e 205d 0ebe 722c 133e 787f c93d
000001c0: 50ea 823d 2fbe d73d b1f1 1e3e ac1c 913e
000001d0: 7467 1cbe a41a a0be aec9 043e e99d 95be
000001e0: edf3 0bbe 39b1 823e cf0a 0d3e 67d0 263e
000001f0: b3a5 de3d 8409 9cbe dd8a a4be c89b 6f3d
00000200: 0758 123e 0e9a 903d 7794 293e 378b 93be
00000210: 633f 643e 66a6 8abd 99d3 8dbe a217 3abe
00000220: 7635 583e fe87 133e 6861 a1be e56d 833e
00000230: d4ec 0a3e 08f9 9c3d ea12 e13c bc5f 00be
00000240: 87c4 d9bd cc9e 53be 5e6c 223e b125 27be
00000250: eda8 1a3d e15b dabe f790 403c cbc0 573d
00000260: 903f abbe 8c01 65bc 5aa9 19be 2ff6 8c3c
00000270: 961f a63d e8fd 9cbe a9c5 e63d c4d2 993e
00000280: 679c 263e 8709 bd3e f8ee 48be b152 97be
00000290: 9d5c 8ebd ab4b 57be 8b6e 83be b1d1 26bd
000002a0: b388 833e a986 013e 5f3b 6f3d 0640 f93d
000002b0: 52da 243d d59b d23d a697 9b3e 494c 163e
000002c0: efed 8abe 0a12 063e 0c8c e13d a289 993d
000002d0: 020f 463e a891 9e3e 2edc 57be f9e6 563e
000002e0: 61ee efbd 1439 ab3e 8a24 83be 3eeb 08be
000002f0: cd09 42be 753c 66bb 7f12 44be 4f64 833e
00000300: b3ba 9cbe 6ed1 97be fc9e 23be 5df6 62be
00000310: 6c9a 723e eb25 0fbe a80e 88be 987c fc3d
00000320: f29b 6abe 9440 adbd 701e 03be 1032 07be
00000330: d39f 29be 88cb 1dbd a076 8e3e e061 81be
00000340: 8784 a0bd b0df 75be a494 8cbe f18e 2f3e
00000350: 0bae 37be 6370 933d ee38 b33d 1dd5 8f3e
00000360: 22ce ac3d 4a29 bb3d a5c7 a33e 8152 df3b
00000370: c4a5 a3be 2237 93be e8b1 29be 242b c5bd
00000380: f32e 833e 684f 28be c6bd 4ebe 6528 8fbd
00000390: 4cd7 8dbd 056d 0dbd fd90 56be c259 a2be
000003a0: 76f1 9d3d fa93 d73d f4c9 063e 9550 80be
000003b0: 8d8a 773d 4ba4 a7bd 306f fe3c 912c 17be
000003c0: bf43 663e 8ddc af3d 869b 8d3e 3403 5f3d
000003d0: 1fcb a8bd d1d3 98be 6707 5d3e 713d 893e
000003e0: 67b4 5bbe e37f 3bbd cacf 043e 00ec 353d
000003f0: 8cf3 1cbe bd4e 103e 7eae 25be 1649 98be

Encoder.encoder_cnn.0.bias f4 [32]
0.09748288 0.037155695 0.18363114 0.20675369 0.14865848 0.11285398 0.11995993 -0.20509057
0.27999395 0.17678273 -0.13191825 0.22030117 -0.31838003 -0.1125123 -0.23156461 0.117565684
0.2041472 -0.17705247 -0.2566606 0.13741045 0.16036385 0.2532425 -0.09246772 0.122308835
0.3105864 0.18867444 -0.003700924 -0.12662935 0.154515 0.2100851 -0.24076672 0.009229495
00000000: 1ba5 c73d 9230 183d cd09 3c3e 3db7 533e
00000010: ee39 183e fd1f e73d 8dad f53d 4303 52be
00000020: 5e5b 8f3e 8806 353e 9415 07be a196 613e
00000030: b502 a3be d96c e6bd 461f 6dbe 47c6 f03d
00000040: f70b 513e 3e4d 35be 0569 83be 53b5 0c3e
00000050: 6c36 243e 00a9 813e b75f bdbd 0e7d fa3d
00000060: 2e05 9f3e df33 413e 348b 72bb 20ab 01be
00000070: 2e39 1e3e 8c20 573e 8d8b 76be 4f37 173c

Encoder.encoder_cnn.1.weight f4 [32]
0.9509121 0.96435934 1.0299525 1.0026647 0.9892541 1.0742209 0.9537584 1.0033674
1.0260632 1.0831397 1.0008854 0.87106305 0.95802283 1.0076222 0.9938991 1.0312359
0.98815084 0.97073174 1.0166453 1.0424594 1.0195962 1.012459 0.9819448 0.9887584
1.0634813 0.9804713 0.9381624 0.9791805 0.950748 1.0363641 0.9440417 0.9722991
00000000: fa6e 733f 41e0 763f 7cd5 833f 5157 803f
00000010: c23f 7d3f 1280 893f 8329 743f 586e 803f
00000020: 0a56 833f 52a4 8a3f 031d 803f fdfd 5e3f
00000030: fc40 753f c4f9 803f 2c70 7e3f 8aff 833f
00000040: 74f7 7c3f e081 783f 6f21 823f 4f6f 853f
00000050: 2182 823f 4298 813f bc60 7b3f 451f 7d3f
00000060: 2820 883f 2b00 7b3f 692b 703f 93ab 7a3f
00000070: 3964 733f 94a7 843f b8ac 713f 98e8 783f

Encoder.encoder_cnn.1.bias f4 [32]
-0.0214047 0.07493709 0.043724976 0.11260209 -0.06146668 0.055008143 0.00850262 0.00046689255
0.10922453 0.033661935 0.010358041 -0.010389972 -0.039757986 -0.0063455817 0.08459225 0.041377738
-0.008750993 -0.016812049 0.018993031 0.06779272 0.044944994 0.028113347 -0.06048449 -0.058979362
0.033487402 -0.04208953 -0.039047588 0.03478175 -0.043843437 0.0031458214 -0.028305344 0.02757334
00000000: e958 afbc 9e78 993d f618 333d ed9b e63d
00000010: 7cc4 7bbd 3850 613d 934e 0b3c 42c9 f439
00000020: 1cb1 df3d 19e1 093d c6b4 293c b33a 2abc
00000030: 45d9 22bd 99ee cfbb b43e ad3d b47b 293d
00000040: 5360 0fbc 6cb9 89bc 4697 9b3c e9d6 8a3d
00000050: 3e18 383d f64d e63c 96be 77bd 5894 71bd
00000060: 162a 093d 1266 2cbd 5df0 1fbd 4f77 0e3d
00000070: 2d95 33bd 202a 4e3b 9ce0 e7bc 7ce1 e13c

Encoder.encoder_cnn.1.running_mean f4 [32]
-0.023483803 0.4262214 0.2607195 0.3169069 -0.12213046 0.42823866 0.11670098 -0.3208274
0.36502022 -0.12930696 -0.24370502 0.314026 0.03513377 -0.16760539 -0.34611854 0.23076107
-0.21540552 0.024352558 -0.5527594 0.45608366 0.24263553 -0.12927544 -0.36777386 -0.052494913
0.21499297 -0.18318309 0.10633637 -0.069952175 -0.00690355 -0.39307153 0.117746614 0.36645097
00000000: 1b61 c0bc b139 da3e 077d 853e 9f41 a23e
00000010: 891f fabd 1942 db3e ec00 ef3d 7d43 a4be
00000020: eee3 ba3e 0b69 04be cf8d 79be 04c8 a03e
00000030: 6ee8 0f3d bfa0 2bbe 7336 b1be a14c 6c3e
00000040: 4493 5cbe 047f c73c a481 0dbf cc83 e93e
00000050: 7375 783e c860 04be db4c bcbe e804 57bd
00000060: 1e27 5c3e 5994 3bbe e2c6 d93d 1643 8fbd
00000070: 2d37 e2bb ac40 c9be 2325 f13d 769f bb3e

Encoder.encoder_cnn.1.running_var f4 [32]
0.027478132 0.21560694 0.04078773 0.03958239 0.05491446 0.12826711 0.014222607 0.048734915
0.039061684 0.06945021 0.050441682 0.048913166 0.09641691 0.040085565 0.03333165 0.034159355
0.14527346 0.12854107 0.17709024 0.086261556 0.10286869 0.14377157 0.08957914 0.12862219
0.060993716 0.117669724 0.056418277 0.043109417 0.071990065 0.2512678 0.14004304 0.10073993
00000000: d219 e13c 11c8 5c3e 0911 273d 2521 223d
00000010: fced 603d 7458 033e f005 693c 439e 473d
00000020: 25ff 1f3d e93b 8e3d f09b 4e3d 2c59 483d
00000030: 3b76 c53d c330 243d c586 083d aeea 0b3d
00000040: 91c2 143e 45a0 033e 2557 353e e6a9 b03d
00000050: d2ac d23d db38 133e 4575 b73d 89b5 033e
00000060: 8cd4 793d d3fc f03d da16 673d 8093 303d
00000070: 876f 933d 2ca6 803e 7167 0f3e bd50 ce3d

Encoder.encoder_cnn.3.weight f4 [32, 32, 3, 3]
-0.02780162 0.04148632 0.0037403705 -0.013301788 0.02995751 -0.077508435 0.0062134047 -0.09553105
-0.029936936 0.011653347 0.004387343 0.02561983 0.057907823 0.040190548 0.06252984 -0.02257836
-0.030129936 -0.09062066 -0.027773567 0.06812673 0.0013904129 -0.02275933 0.031162433 -0.0739551
0.03949139 -0.022475557 -0.09212842 0.004954498 0.032347504 0.021815388 -0.021464638 0.062847234
-0.002323913 0.03263646 -0.0014161533 0.029449921 -0.049964022 -0.039616313 -0.07299996 0.04345038
0.021696003 0.016442427 0.039920308 -0.021982929 -0.00456809 -0.055080965 -0.09496923 -0.06669139
0.013492835 0.04044905 0.059710752 0.13005391 0.005775253 0.02205377 -0.04597766 -0.042828575
0.05737721 -0.024615113 0.008974777 -0.0021248276 0.061217967 -0.029040765 -0.09216889 -0.05900942
0.04862246 -0.03457549 -0.022369843 -0.0015215967 0.052763864 -0.05792013 -0.017819403 0.0032421174
-0.035586625 -0.005454908 -0.021339687 0.019188715 0.048418272 0.061846588 0.053368155 0.0070110857
0.047435418 -0.059384894 0.030339094 -0.06057646 -0.0043297284 -0.07558411 0.0679037 -0.07200122
-0.0430365 0.031692192 -0.011968951 -0.03386266 0.018941991 -0.011179174 0.0017383965 0.0820127
0.058747645 -0.064823456 0.036994006 0.01589666 -0.031041017 0.03365693 0.032503057 0.011673926
-0.06638936 -0.011695969 -0.040342577 0.018817766 -0.0069059944 -0.039988197 0.033656932 -0.019700639
0.0625904 0.03855202 0.048681673 -0.016850868 0.006416201 -0.0530331 -0.017673155 -0.019635754
0.07009273 0.04395158 -0.021110013 0.012919086 -0.006880426 -0.0005031153 0.025466906 -0.009736096
-0.01627001 -0.080584295 0.033179812 -0.042108513 -0.06499728 0.091447696 0.067169294 0.021951102
-0.04066613 -0.0073728627 -0.017407896 0.0061618523 0.00050948345 0.019727254 0.02846852 0.033537265
-0.05121885 -0.037777986 -0.061868425 -0.046007883 -0.055766292 -0.07523724 -0.08123168 0.057397593
0.00045730805 0.014517601 0.026167324 0.013081785 0.09011944 0.012891205 0.0006210167 -0.0062981867
-0.031678647 -0.023789132 0.0018206129 -0.011687317 -0.035259806 -0.014779469 0.045555256 0.019670531
-0.081792526 -0.0030373486 -0.024092048 -0.015766373 -0.042440172 0.011968716 0.04277393 0.0071780756
-0.009274306 0.020650983 0.040191006 -0.0033006598 0.016251551 -0.08043023 -0.079220064 -0.059004597
0.027643539 0.022075644 0.020091558 0.03890643 -0.0021921315 -0.044090737 0.025446394 -0.026159486
-0.05163713 -0.03715275 -0.09698081 -0.023188429 0.027420519 0.035684265 -0.03492021 0.012476042
-0.015478003 0.0019399509 -0.07192203 0.0070001613 0.040514972 -0.09367384 0.013217398 -0.0420361
-0.017528204 0.0050178263 0.03174899 -0.044547208 -0.020652344 -0.012112114 0.0028958279 0.05318344
-0.008995088 0.035471857 -0.064152345 -0.061851796 -0.021865152 -0.15301953 -0.078655295 -0.07288488
-0.024383528 -0.0044670952 0.03704014 -0.010132568 -0.016401894 0.044028815 0.02390363 -0.027967982
-0.086864196 0.03437043 0.01055253 0.04888548 -0.01240659 0.06443332 -0.0016746835 -0.026117476
-0.04208109 -0.01000248 -0.035999015 0.022307504 -0.09568913 -0.027752776 0.061077025 0.04041715
0.012510064 0.04057238 0.09201945 -0.0128980465 -0.040455334 -0.022815391 0.03868185 0.0215926
00000000: 39c0 e3bc 8fed 293d 0121 753b beef 59bc
00000010: 7469 f53c bebc 9ebd d199 cb3b c8a5 c3bd
00000020: 4e3e f5bc aeed 3e3c b3c3 8f3b ade0 d13c
00000030: c130 6d3d d89e 243d a50f 803d 41f6 b8bc
00000040: 0ed3 f6bc 5397 b9bd 6485 e3bc 0786 8b3d
00000050: 843e b63a c671 babc 5c48 ff3c c575 97bd
00000060: b9c1 213d a91e b8bc d3ad bcbd 5759 a23b
00000070: d17e 043d 2fb6 b23c 9cd6 afbc 0db6 803d
00000080: ca4c 18bb cfad 053d 389e b9ba f640 f13c
00000090: 13a7 4cbd b744 22bd 0181 95bd 07f9 313d
000000a0: d1bb b13c 45b2 863c 7a83 233d 8b15 b4bc
000000b0: ebaf 95bb 949c 61bd 3a7f c2bd 7f95 88bd
000000c0: 0d11 5d3c e7ad 253d 4393 743d da2c 053e
000000d0: 553e bd3b 1caa b43c 1253 3cbd 046d 2fbd
000000e0: 5e04 6b3d a2a5 c9bc f10a 133c b140 0bbb
000000f0: b1bf 7a3d e6e6 edbc 0bc3 bcbd ddb3 71bd
00000100: 5828 473d 079f 0dbd f640 b7bc 5070 c7ba
00000110: ec1e 583d a93d 6dbd fff9 91bc b479 543b
00000120: 48c3 11bd 16bf b2bb 91d0 aebc a731 9d3c
00000130: 3d52 463d d952 7d3d 9198 5a3d 40bd e53b
00000140: a44b 423d 933d 73bd b189 f83c 061f 78bd
00000150: 65e0 8dbb d8cb 9abd 1811 8b3d 6075 93bd
00000160: 0b47 30bd accf 013d 6b19 44bc 93b3 0abd
00000170: 3c2c 9b3c db28 37bc e8da e33a 46f6 a73d
00000180: 5fa1 703d 29c2 84bd 0787 173d b639 823c
00000190: bb49 febc d9db 093d ed21 053d ff43 3f3c
000001a0: 25f7 87bd 73a0 3fbc 423e 25bd b727 9a3c
000001b0: ae4b e2bb aaca 23bd dadb 093d 3c63 a1bc
000001c0: 652f 803d b9e8 1d3d 6f66 473d d50a 8abc
000001d0: ff3e d23b 3c39 59bd 4bc7 90bc 29db a0bc
000001e0: c78c 8f3d 9206 343d e8ee acbc 93aa 533c
000001f0: 3275 e1bb 7fe3 03ba f99f d03c 2584 1fbc
00000200: af48 85bc 6109 a5bd 8ee7 073d fa79 2cbd
00000210: 4b1d 85bd ee48 bb3d 0e90 893d ccd2 b33c
00000220: 8791 26bd 0e98 f1bb 019b 8ebc 5de9 c93b
00000230: db8e 053a 0d9b a13c d036 e93c 5f5e 093d
00000240: dbca 51bd 17bd 1abd bf69 7dbd c372 3cbd
00000250: 326b 64bd fb15 9abd cc5c a6bd bd19 6b3d
00000260: d9c2 ef39 3bdb 6d3c db5c d63c fc54 563c
00000270: 8a90 b83d a235 533c bacb 223a 0561 cebb
00000280: 78c1 01bd 6de1 c2bc a2a1 ee3a 297c 3fbc
00000290: 966c 10bd 9625 72bc 2698 3a3d 1824 a13c
000002a0: d782 a7bd 410e 47bb b05c c5bc 7b28 81bc
000002b0: bfd5 2dbd 6f18 443c b733 2f3d 1036 eb3b
000002c0: 42f3 17bc 402c a93c 539f 243d e24f 58bb
000002d0: f921 853c 9bb8 a4bd 213e a2bd ceae 71bd
000002e0: b474 e23c fbd7 b43c 0d97 a43c 595c 1f3d
000002f0: dda9 0fbb 7d98 34bd f574 d03c 6b4c d6bc
00000300: 7581 53bd 7b2d 18bd e09d c6bd a9f5 bdbc
00000310: ffa0 e03c aa29 123d 7e08 0fbd 5068 4c3c
00000320: 7397 7dbc f345 fe3a db4b 93bd 9c61 e53b
00000330: 07f3 253d 12d8 bfbd c98d 583c 0c2e 2cbd
00000340: 4f97 8fbc 946c a43b 3b0b 023d 2277 36bd
00000350: 1b2f a9bc e371 46bc eec7 3d3b e1d6 593d
00000360: 2260 13bc f04a 113d 4e62 83bd 4f58 7dbd
00000370: 8c1e b3bc 27b1 1cbe 0716 a1bd ab44 95bd
00000380: f7bf c7bc b660 92bb 67b7 173d 1203 26bc
00000390: 445d 86bc 8f57 343d 8cd1 c33c 1c1d e5bc
000003a0: dbe5 b1bd 02c8 0c3d 85e4 2c3c 243c 483d
000003b0: 0345 4bbc 9ef5 833d 0e81 dbba 51f4 d5bc
000003c0: 395d 2cbd 71e1 23bc b473 13bd 3abe b63c
000003d0: aaf8 c3bd ca59 e3bc e72b 7a3d 748c 253d
000003e0: 03f7 4c3c 392f 263d b274 bc3d 5452 53bc
000003f0: 7eb4 25bd 58e7 babc dc70 1e3d f7e2 b03c

Encoder.encoder_cnn.3.bias f4 [32]
-0.009301902 0.07461155 -0.0079672085 -0.03996661 0.025077412 0.00081793044 -0.024930848 0.020760916
0.041587893 0.0111827105 -0.031350266 -0.0425657 -0.0074262097 0.03623917 -0.029177146 -0.017064067
0.043507665 -0.0060342303 0.018505216 -0.027314095 -0.03761766 0.035083946 0.011736695 -0.025045054
0.013169145 0.074799076 -0.02219028 -0.048203003 0.021637583 0.059537064 -0.021425953 0.023964938
00000000: 0167 18bc f1cd 983d e588 02bc 07b4 23bd
00000010: 256f cd3c 626a 563a c73b ccbc cc12 aa3c
00000020: 1158 2a3d b037 373c 2369 00bd 5f59 2ebd
00000030: 9057 f3bb 866f 143d e904 efbc f1c9 8bbc
00000040: 1835 323d cbba c5bb 4098 973c cfc1 dfbc
00000050: fa14 1abd 2fb4 0f3d 444b 403c 492b cdbc
00000060: 66c3 573c 4230 993d 64c8 b5bc 8370 45bd
00000070: 4d41 b13c 23dd 733d 7b85 afbc 1e52 c43c

Encoder.encoder_cnn.4.weight f4 [32]
0.9943662 0.9786058 1.0003766 1.0458808 0.9812907 1.0183679 0.9753375 1.0094815
1.0382714 1.0160432 1.0167259 1.0605606 0.9839103 1.047883 0.9841862 1.037677
0.974352 0.97454786 0.99045503 1.0037693 1.0007203 0.97315395 1.0261587 1.0195824
0.96058744 0.961872 0.98253787 1.0374825 0.9625817 1.0091181 0.9625845 1.0585389
00000000: c98e 7e3f e985 7a3f 570c 803f 6cdf 853f
00000010: de35 7b3f e159 823f b8af 793f b136 813f
00000020: 14e6 843f b40d 823f 1324 823f 73c0 873f
00000030: 8ce1 7b3f 0821 863f a0f3 7b3f 9ad2 843f
00000040: 226f 793f f87b 793f 768e 7d3f 837b 803f
00000050: 9a17 803f 9e20 793f 2b59 833f ad81 823f
00000060: 0fe9 753f 3e3d 763f 9a87 7b3f 3acc 843f
00000070: c16b 763f c82a 813f f06b 763f 347e 873f

Encoder.encoder_cnn.4.bias f4 [32]
0.03049904 -0.052001387 -0.056590315 0.014320593 -0.012375041 -0.016392678 0.004955094 0.10519906
0.057448726 -0.003788288 -0.017145485 0.043763477 -0.06637263 0.01616416 -0.026242532 0.052673
-0.074170485 -0.05586973 0.008880498 0.040660985 -0.015221762 -0.039382137 0.018388756 0.047976248
-0.039505593 -0.03537371 -0.02888226 0.011305618 -0.039689593 -0.03375284 -0.02925164 0.05717294
00000000: 1fd9 f93c 68ff 54bd 3fcb 67bd eca0 6a3c
00000010: afc0 4abc f049 86bc 575e a23b 9b72 d73d
00000020: 5b4f 6b3d ed44 78bb b074 8cbc 5541 333d
00000030: 60ee 87bd b36a 843c 94fa d6bc a5bf 573d
00000040: b2e6 97bd a8d7 64bd 827f 113c 228c 263d
00000050: b264 79bc 2a4f 21bd 04a4 963c be82 443d
00000060: 9ed0 21bd 06e4 10bd 7d9a ecbc 333b 393c
00000070: 8e91 22bd 6b40 0abd 23a1 efbc 2c2e 6a3d

Encoder.encoder_cnn.4.running_mean f4 [32]
-0.35575822 -0.6142335 0.41104984 0.2794328 0.022423368 -1.1485642 0.117559575 -0.28747928
0.08794896 0.34259483 0.38034666 -0.46774486 -0.3764208 -1.0701381 -0.40728 -0.006574333
0.29189336 -0.33778012 -0.45786956 -0.16833252 0.09927682 -0.3881152 -0.53367305 0.024467269
-0.6319893 0.36778292 0.11539929 -1.136637 -0.04154 0.45905977 -0.10795945 -0.26009506
00000000: f125 b6be 683e 1dbf 2075 d23e d111 8f3e
00000010: 36b1 b73c 2704 93bf 13c3 f03d 7c30 93be
00000020: 961e b43d 9768 af3e ccbc c23e 417c efbe
00000030: 3aba c0be 49fa 88bf 0187 d0be 816d d7bb
00000040: 0c73 953e 84f1 acbe e16d eabe 5c5f 2cbe
00000050: a551 cb3d 09b7 c6be cc9e 08bf 956f c83c
00000060: 0dca 21bf 0b4e bc3e 7756 ec3d 527d 91bf
00000070: d925 2abd e209 eb3e d819 ddbd 2e2b 85be

Encoder.encoder_cnn.4.running_var f4 [32]
0.9536842 0.8878555 1.1134511 1.5105969 1.4744918 0.64313525 1.7727728 1.3172941
0.8170534 1.6561627 1.2995552 2.0535638 1.6771454 1.1955417 0.96816474 1.2681267
1.8851135 1.847696 1.9924151 0.83616805 1.8088474 2.0105155 1.9667002 2.345774
1.6272565 0.8944778 1.4226252 0.8778249 0.81761867 1.359711 1.4605927 1.4669605
00000000: a624 743f 804a 633f 9185 8e3f 3d5b c13f
00000010: 26bc bc3f 83a4 243f 38ea e23f 189d a83f
00000020: 692a 513f 24fd d33f d357 a63f 976d 0340
00000030: b3ac d63f 8307 993f a5d9 773f fa51 a23f
00000040: 664b f13f 4d81 ec3f 7507 ff3f 1c0f 563f
00000050: 5088 e73f 49ac 0040 d5bc fb3f 2921 1640
00000060: f149 d03f 7ffc 643f 9518 b63f 22b9 603f
00000070: 754f 513f 030b ae3f b4f4 ba3f 5dc5 bb3f

Encoder.encoder_cnn.6.weight f4 [16, 32, 3, 3]
0.031970426 0.03904316 -0.003486949 -0.03453865 -0.101206474 -0.08124496 0.011936398 -0.013947211
-0.033984624 0.06926563 0.09415485 -0.019962741 0.017460218 -0.016082752 -0.0046793213 0.010512286
0.005881421 -0.021239268 -0.0126779955 0.06857652 -0.012127311 -0.01584451 -0.00046247404 -0.022315277
0.049946368 -0.0072119087 0.012743235 0.024703108 -0.0490658 -0.0282277 0.01190518 0.04214128
0.0619346 -0.056398652 0.023602596 0.008584638 0.031425983 0.063693605 0.037277404 -0.050067075
-0.07091153 -0.054949775 0.00034138252 -0.019544877 0.055553757 -0.03185518 0.06980424 0.025018567
0.075307325 0.04141163 0.05344574 0.104899734 0.14196311 0.006079509 0.02041119 0.057099905
0.023911254 0.024325516 -0.074544325 -0.06693977 0.012962084 -0.0029529955 -0.016409079 0.058267523
-0.0742886 -0.06529473 0.05701507 -0.002516198 -0.033855576 0.005612692 -0.07171718 -0.007857496
0.110145755 -0.008185288 0.00022701926 -0.036481928 0.026381511 -0.01734342 -0.0034753173 0.03148273
-0.039905395 -0.03740937 0.023054644 -0.066084005 0.04256682 -0.07555393 -0.0018260494 0.04188117
-0.049778096 -0.021470703 -0.0924601 0.049365427 0.064452544 0.019191433 -0.10971985 0.011872237
0.02192211 0.0146582145 -0.031327303 0.064608596 -0.05513427 -0.062790796 0.014593319 0.06282021
0.04872999 -0.045441814 -0.0030877776 0.039372865 0.008541701 0.046890326 -0.061802376 -0.035075154
-0.007238168 -0.009452691 0.027358426 -0.02664351 0.018234966 0.025191013 -0.050563462 -0.00035692006
-0.004882643 0.02593503 0.03436883 -0.024312172 0.00081448274 0.04719831 0.04621063 -0.024653748
0.027327765 -0.046095625 0.053130906 0.00613798 0.052232645 -0.034163944 0.034714118 -0.05471306
-0.096067995 -0.009452354 0.0038574177 -0.024322063 -0.08151625 0.009451993 0.06952596 0.03679518
0.048072953 0.03793137 -0.0140500665 -0.021568656 -0.021780256 -0.013292446 0.028117608 0.01988807
0.027588563 0.032545082 0.069998704 -0.003636123 0.04246059 -0.0255248 0.04765118 0.020281123
0.057778046 -0.028919062 0.11416343 0.049626034 0.09190594 0.012690674 0.05950694 -0.0019142613
-0.002696004 -0.035745054 -0.048682325 0.0023060534 -0.023166267 0.014882997 -0.087960914 -0.073847555
-0.05870506 0.029900843 -0.0023728108 0.005372686 -0.03815873 -0.009051143 0.009858069 -0.053025287
-0.076495945 -0.049371704 0.044326764 -0.02338706 -0.06105749 -0.03845272 -0.0028836569 -0.01897317
-0.036861956 -0.0006729305 0.02469872 0.046732396 -0.02629176 -0.0074746236 -0.023923492 0.023742324
-0.070741795 0.015315635 -0.0052738627 -0.0777512 0.08493545 0.06692784 0.018882414 0.025722725
-0.063454896 -0.048446756 0.04803972 -0.014408085 0.04846582 0.016885487 -0.022128027 -0.0071797436
-0.028052678 -0.07224855 0.0158104 0.026654467 0.022534266 0.032888107 0.03214012 -0.0056975516
0.0068295314 0.010698714 -0.051081464 -0.039600383 -0.036317676 -0.023876794 -0.0839844 -0.033383556
0.03050144 0.053002696 -0.023108875 -0.049063716 -0.07099698 -0.027665623 -0.08852374 -0.042700633
-0.025898691 -0.02265966 0.037393693 -0.030235883 0.052669995 -0.01963595 0.05809292 -0.02959343
0.025086844 0.02917786 -0.032406468 -0.024808265 -0.03786321 0.031822223 0.03623172 0.011494861
00000000: 6cf3 023d b8eb 1f3d 4c85 64bb 6678 0dbd
00000010: 5745 cfbd c263 a6bd e290 433c d882 64bc
00000020: 7633 0bbd 23db 8d3d 42d4 c03d e788 a3bc
00000030: bb08 8f3c fabf 83bc fe54 99bb b93b 2c3c
00000040: efb8 c03b f9fd adbc 5eb7 4fbc d971 8c3d
00000050: a1b1 46bc 59cc 81bc 3778 f2b9 87ce b6bc
00000060: 9094 4c3d e051 ecbb 00c9 503c 2c5e ca3c
00000070: 38f9 48bd c73d e7bc f20d 433c 569c 2c3d
00000080: 23af 7d3d 4602 67bd 3b5a c13c 95a6 0c3c
00000090: 88b8 003d cb71 823d 31b0 183d 2213 4dbd
000000a0: 103a 91bd 0413 61bd 96fb b239 941c a0bc
000000b0: 568c 633d 947a 02bd 86f5 8e3d bdf3 cc3c
000000c0: ba3a 9a3d 3e9f 293d ece9 5a3d acd5 d63d
000000d0: c75e 113e 9e36 c73b 5e35 a73c 97e1 693d
000000e0: 89e1 c33c 4e46 c73c b2aa 98bd b817 89bd
000000f0: ec5e 543c 0b87 41bb 556c 86bc eda9 6e3d
00000100: 9f24 98bd 3eb9 85bd a288 693d cce6 24bb
00000110: 25ac 0abd acea b73b 75e0 92bd babc 00bc
00000120: 1994 e13d 961b 06bc 050c 6e39 136e 15bd
00000130: 0a1e d83c ca13 8ebc 26c2 63bb 09f4 003d
00000140: d773 23bd 913a 19bd 18dd bc3c 0d57 87bd
00000150: 8c5a 2e3d 05bc 9abd 0d58 efba 978b 2b3d
00000160: 1ee4 4bbd 54e3 afbc b95b bdbd 6733 4a3d
00000170: b2ff 833d 5a37 9d3c cdb4 e0bd c583 423c
00000180: ff95 b33c 0229 703c 0f51 00bd 8351 843d
00000190: 79d4 61bd 7698 80bd d118 6f3c e2a7 803d
000001a0: 1999 473d 3221 3abd 505c 4abb 7145 213d
000001b0: 7ef2 0b3c 1210 403d 7d24 7dbd f7aa 0fbd
000001c0: 272e edbb 76df 1abc c71e e03c 7e43 dabc
000001d0: 7f61 953c 625d ce3c a21b 4fbd 0021 bbb9
000001e0: 94fe 9fbb b375 d43c 55c6 0c3d 522a c7bc
000001f0: 0383 553a 0453 413d 5c47 3d3d a8f6 c9bc
00000200: 7ade df3c c4ce 3cbd cb9f 593d 1c21 c93b
00000210: e6f1 553d 7eef 0bbd 6430 0e3d cd1a 60bd
00000220: 4cbf c4bd 0cde 1abc bbcc 7c3b 103f c7bc
00000230: fef1 a6bd 88dc 1a3c a063 8e3d 8bb6 163d
00000240: 25e8 443d ed5d 1b3d 4032 66bc c0b0 b0bc
00000250: 826c b2bc 8fc8 59bc e656 e63c 4eec a23c
00000260: 6901 e23c fe4d 053d 7b5b 8f3d 054c 6ebb
00000270: 28eb 2d3d 6319 d1bc e22d 433d 9924 a63c
00000280: aca8 6c3d abe7 ecbc 84ce e93d ab44 4b3d
00000290: 2e39 bc3d 8bec 4f3c 8dbd 733d f3e7 faba
000002a0: 71af 30bb 6869 12bd 1e67 47bd 2821 173b
000002b0: 2fc7 bdbc d0d7 733c da24 b4bd 633d 97bd
000002c0: b874 70bd 9df2 f43c 2981 1bbb 5b0d b03b
000002d0: 544c 1cbd 3f4b 14bc bd83 213c 0b31 59bd
000002e0: e8a9 9cbd fc39 4abd fb8f 353d 3896 bfbc
000002f0: 6b17 7abd 9980 1dbd bcfb 3cbb 9f6d 9bbc
00000300: 90fc 16bd 9a67 30ba f854 ca3c 786a 3f3d
00000310: d161 d7bc b0ed f4bb 33fb c3bc 437f c23c
00000320: 13e1 90bd 6eee 7a3c 5ed0 acbb 053c 9fbd
00000330: a3f2 ad3d 7711 893d 4baf 9a3c 77b8 d23c
00000340: a4f4 81bd 1b70 46bd 4cc5 443d e30f 6cbc
00000350: 1884 463d 6f53 8a3c d645 b5bc 0e44 ebbb
00000360: bbce e5bc 0cf7 93bd d084 813c 785a da3c
00000370: c899 b83c aeb5 063d 5ca5 033d 87b2 babb
00000380: 43ca df3b a949 2f3c cc3a 51bd 0334 22bd
00000390: d8c1 14bd 4499 c3bc 0300 acbd 32bd 08bd
000003a0: 28de f93c 5b19 593d d34e bdbc 09f7 48bd
000003b0: dd66 91bd 04a3 e2bc ef4b b5bd dce6 2ebd
000003c0: 7e29 d4bc c0a0 b9bc 212a 193d 3eb1 f7bc
000003d0: 7ebc 573d 92db a0bc d7f2 6d3d ec6d f2bc
000003e0: ed82 cd3c 6806 ef3c a5bc 04bd b43a cbbc
000003f0: 7416 1bbd 0558 023d b667 143d f154 3c3c

Encoder.encoder_cnn.6.bias f4 [16]
0.028920794 0.00602748 -0.005349827 0.072886325 -0.009549495 -0.026064038 -0.05963477 -0.022513773
-0.014052077 -0.012146112 0.019164631 0.09897405 0.059464794 0.041590877 0.041058626 -0.008131203
00000000: 4deb ec3c 2b82 c53b 9a4d afbb 6d45 953d
00000010: 7c75 1cbc 4084 d5bc 9743 74bd ce6e b8bc
00000020: af3a 66bc 7c00 47bc 25ff 9c3c e8b2 ca3d
00000030: 5b91 733d 325b 2a3d 172d 283d bd38 05bc

Encoder.encoder_cnn.7.weight f4 [16]
1.0060092 1.0397255 1.0215808 1.0072466 0.9860389 0.97345847 1.0502477 0.9708041
0.96642244 0.9930125 0.98913795 1.023219 0.98341924 0.98212385 0.9801947 0.9987281
00000000: e9c4 803f ba15 853f 29c3 823f 75ed 803f
00000010: 0c6d 7c3f 9334 793f 846e 863f 9e86 783f
00000020: 7667 773f 1136 7e3f 2538 7d3f d7f8 823f
00000030: 5dc1 7b3f 786c 7b3f 0aee 7a3f a5ac 7f3f

Encoder.encoder_cnn.7.bias f4 [16]
-0.043223836 0.07499062 0.029066931 -0.036778074 0.025883585 -0.06774488 0.053530924 -0.018983217
-0.059912246 0.045143556 0.059506215 0.019242873 -0.023117036 -0.03462875 -0.037142888 -0.048269562
00000000: 7a0b 31bd af94 993d c61d ee3c 9ba4 16bd
00000010: d009 d43c d4bd 8abd 3e43 5b3d b182 9bbc
00000020: 8b66 75bd 73e8 383d cabc 733d 3ba3 9d3c
00000030: f05f bdbc e0d6 0dbd 2423 18bd 4eb6 45bd

Encoder.encoder_cnn.7.running_mean f4 [16]
0.14909218 -0.106011055 -0.08660597 0.26954454 -0.77673656 -0.10946081 -0.43066093 -0.367311
-0.31429884 -0.043885604 -0.017348181 0.17416391 0.23800509 -0.009969827 -0.22976854 0.010620792
00000000: 9fab 183e 531c d9bd 795e b1bd be01 8a3e
00000010: 35d8 46bf fd2c e0bd 977f dcbe 3010 bcbe
00000020: c7eb a0be 64c1 33bd c61d 8ebc 0658 323e
00000030: 9bb7 733e 7c58 23bc 7248 6bbe d502 2e3c

Encoder.encoder_cnn.7.running_var f4 [16]
0.7690287 1.0812991 0.75255734 0.70038384 0.53195786 1.0689065 0.63725984 0.64121854
0.79354596 0.8571818 0.58283997 0.599384 0.6798691 0.70622647 0.7590369 0.94948137
00000000: 11df 443f 0268 8a3f 99a7 403f 5b4c 333f
00000010: 642e 083f eed1 883f 7623 233f e626 243f
00000020: d425 4b3f 4470 5b3f 0035 153f 3b71 193f
00000030: e70b 2e3f 42cb 343f 3e50 423f 3611 733f

Encoder.mu.0.weight f4 [128, 256]
-0.08426616 0.045320354 0.084904686 0.11560757 0.0948023 -0.025178941 0.042472318 -0.057741623
0.051771898 -0.04716475 -0.0057832915 0.11236952 -0.03792857 0.030387575 0.042190123 -0.01225378
0.106730506 0.055916604 0.09441414 -0.07894401 -0.049744256 -0.012741962 0.00346936 -0.029982068
0.045959454 -0.07775079 0.0692959 -0.03159518 -0.017003214 -0.056139898 0.12718122 0.011030413
0.07697814 0.1422221 -0.09770064 -0.060487583 0.045269564 -0.020114329 0.05218985 -0.06658259
0.12372768 -0.051177938 0.029145323 0.00214285 -0.083371244 -0.0002547289 0.052594934 0.0055835824
-0.10870323 -0.08837065 0.06945427 -0.0032784604 0.103100054 -0.14458409 0.052141454 0.04306728
0.06688957 -0.07851413 0.007589032 0.058336608 0.12290572 -0.12180685 0.08450572 0.004299334
0.1816313 0.029154737 0.08243747 -0.102617495 0.013929043 0.04137911 0.10108318 0.121024676
0.011921991 0.02342544 -0.0038659512 0.0463728 0.06337431 0.010947854 -0.012832603 0.04131015
0.03548274 0.07582443 0.007078295 0.057743203 0.0150871 0.041846074 0.027044456 0.12252983
-0.007980587 -0.1295341 0.063119546 -0.09633711 0.0016827577 0.007852238 0.030146891 -0.09921965
0.082631044 -0.005289947 0.02500334 0.041197497 0.07073613 -0.0108561795 -0.032898758 0.018880712
-0.024448551 0.0075452253 0.04516835 0.063789956 -0.10157659 0.02438909 0.010813835 -0.05788523
-0.0843463 -0.048689835 0.020439249 0.041554928 0.10734059 -0.108123325 -0.017489957 0.013053869
-0.030172965 0.11537786 -0.075650744 0.15560558 0.027693447 0.04537879 -0.057861406 0.087532744
-0.092966825 0.038122274 0.10035768 0.05695782 0.06316347 -0.06709342 0.035501864 0.0685469
-0.022518268 0.06481318 -0.023330754 -0.011082528 -0.039283648 -0.031410288 -0.053697545 -0.03970021
-0.030963847 -0.18753183 0.013202926 0.054088425 0.14533491 0.07859065 -0.018205559 0.008378303
0.009599113 0.014882569 0.0256902 -0.013869542 0.08598156 -0.06263635 0.05386963 0.008408701
-0.046443444 0.024160577 0.026994139 -0.13769388 0.008961236 -0.09389997 0.14964972 -0.0927965
0.015092844 -0.09945952 0.12572677 -0.03182737 -0.008107203 0.006143242 0.084828794 -0.05769365
-0.01339113 0.0017435331 0.055428088 -0.02667902 -0.014578988 0.0627468 0.038726393 -0.10831917
0.13890341 -0.09449664 0.054911803 0.02087247 0.0317161 -0.057619765 0.004236496 -0.028617095
-0.058620848 -0.01233435 0.013380584 -0.11171549 0.005775002 0.08162117 -0.01728054 0.038393404
-0.019348932 0.04604811 0.0122490795 0.059568126 0.14282617 -0.047760557 -0.040157896 0.062347557
-0.060539234 0.05236374 -0.009895096 0.048648424 -0.016597062 0.013881017 -0.082153715 0.13206962
-0.07071895 -0.051308464 0.032872993 -0.048185486 -0.085455924 -0.001718452 0.02879178 0.11093279
0.037319478 0.09228344 -0.076907426 0.051203705 -0.006242501 0.0055369516 -6.1746177e-06 0.012707582
-0.057339482 -0.08996907 0.016452968 -0.07612864 -0.048680753 -0.0010186622 0.029354503 -0.03936083
-0.06254707 0.023281489 -0.04865704 0.111240804 0.0067435117 -0.00041428074 0.03594943 0.03396332
-0.04975577 0.04584861 -0.007992184 0.031306334 0.031018393 0.059538778 -0.006705728 0.0007972325
00000000: bd93 acbd d6a1 393d 82e2 ad3d a9c3 ec3d
00000010: b527 c23d 1144 cebc 74f7 2d3d 7b82 6cbd
00000020: c50e 543d d32f 41bd c481 bdbb fe21 e63d
00000030: fd5a 1bbd 5def f83c 8dcf 2c3d 14c4 48bc
00000040: 8695 da3d cf08 653d 335c c13d 66ad a1bd
00000050: a2c0 4bbd aac3 50bc 345e 633b f49c f5bc
00000060: fb3f 3c3d ce3b 9fbd 02eb 8d3d f369 01bd
00000070: 534a 8bbc f3f2 65bd cb3b 023e e8b8 343c
00000080: b7a6 9d3d aca2 113e 4617 c8bd d4c1 77bd
00000090: 946c 393d cec6 a4bc 06c5 553d 745c 88bd
000000a0: f064 fd3d f59f 51bd 2cc2 ee3c 0f6f 0c3b
000000b0: 8bbe aabd 228d 85b9 c96d 573d 7cf6 b63b
000000c0: cd9f debd acfb b4bd 0a3e 8e3d 70db 56bb
000000d0: 1f26 d33d da0d 14be 4792 553d 5167 303d
000000e0: 66fd 883d 04cc a0bd 6aad f83b 5ef2 6e3d
000000f0: feb5 fb3d df75 f9bd 5611 ad3d 6de1 8c3b
00000100: 8efd 393e ead5 ee3c fad4 a83d 1f29 d2bd
00000110: a436 643c 247d 293d b304 cf3d c9db f73d
00000120: 7454 433c b5e6 bf3c e65b 7dbb 68f1 3d3d
00000130: 64ca 813d a15e 333c d73f 52bc d534 293d
00000140: 5956 113d d749 9b3d 0bf1 e73b 2384 6c3d
00000150: e22f 773c ca66 2b3d 568c dd3c ebf0 fa3d
00000160: 02c1 02bc 96a4 04be d244 813d 644c c5bd
00000170: fb8f dc3a aca6 003c 9df6 f63c ac33 cbbd
00000180: 773a a93d 4b57 adbb ced3 cc3c b5be 283d
00000190: 1bde 903d 1ede 31bc d9c0 06bd b9ab 9a3c
000001a0: 5448 c8bc f03d f73b 7302 393d 4fa4 823d
000001b0: 6307 d0bd a1cb c73c 832c 313c 1019 6dbd
000001c0: c1bd acbd fe6e 47bd 3670 a73c 8035 2a3d
000001d0: 62d5 db3d c36f ddbd 1947 8fbc e5df 553c
000001e0: 4b2d f7bc 3a4b ec3d c7ee 9abd 1257 1f3e
000001f0: 5edd e23c 1cdf 393d 1500 6dbd 5e44 b33d
00000200: 6465 bebd 1a26 1c3d 5488 cd3d 9a4c 693d
00000210: d95b 813d 4668 89bd 676a 113d 5162 8c3d
00000220: 3b78 b8bc c6bc 843d 2320 bfbc 7e93 35bc
00000230: e4e7 20bd 13a8 00bd f5f1 5bbd b09c 22bd
00000240: e5a7 fdbc 5808 40be 1651 583c d38b 5d3d
00000250: add2 143e 22f4 a03d d323 95bc 2645 093c
00000260: 9945 1d3c 05d6 733c 4174 d23c 133d 63bc
00000270: 1a17 b03d 7d47 80bd 67a6 5c3d a6c4 093c
00000280: 7b3b 3ebd 67ec c53c d022 dd3c a0ff 0cbe
00000290: 26d2 123c a14e c0bd c73d 193e 170c bebd
000002a0: fa47 773c 6fb1 cbbd 85be 003e 6b5d 02bd
000002b0: 13d4 04bc 404d c93b b8ba ad3d 2d50 6cbd
000002c0: 7866 5bbc 4387 e43a 9008 633d f68d dabc
000002d0: b5dc 6ebc 6581 803d 919f 1e3d 71d6 ddbd
000002e0: b23c 0e3e 7487 c1bd 33eb 603d befc aa3c
000002f0: bee8 013d b402 6cbd 4ed2 8a3b 666e eabc
00000300: 6a1c 70bd 0316 4abc 3d3a 5b3c 17cb e4bd
00000310: 3a3c bd3b 0029 a73d eb8f 8dbc 6742 1d3d
00000320: a781 9ebc f19c 3c3d 5db0 483c b5fd 733d
00000330: 0641 123e 93a0 43bd 9b7c 24bd 2760 7f3d
00000340: fdf7 77bd 5c7b 563d 0a1f 22bc 9243 473d
00000350: 90f6 87bc 356d 633c 3540 a8bd 423d 073e
00000360: 19d5 90bd d328 52bd d5a5 063d 255e 45bd
00000370: 8403 afbd ae3d e1ba bddc eb3c bb30 e33d
00000380: 4fdc 183d 1aff bc3d a481 9dbd faba 513d
00000390: e58d ccbb 516f b53b 902f cfb6 7633 503c
000003a0: cedc 6abd b441 b8bd 60c8 863c 55e9 9bbd
000003b0: 7865 47bd a284 85ba db78 f03c d238 21bd
000003c0: ae18 80bd d2b8 be3c 9b4c 47bd 38d2 e33d
000003d0: adf8 dc3b d233 d9b9 b63f 133d 1f1d 0b3d
000003e0: b5cc 4bbd c1cb 3b3d a6f1 02bc 123b 003d
000003f0: 491a fe3c efde 733d b9bb dbbb 5efd 503a

Encoder.mu.0.bias f4 [128]
-0.018684955 0.037956197 0.02026656 -0.022363465 0.053149123 -0.06828708 -0.018782701 0.03817818
-0.0028253524 -0.038158257 0.059360776 -0.037957646 0.0703735 0.010257519 -0.018039733 0.027870873
-0.036863755 -0.0556153 0.07144577 0.033862412 0.019073805 0.0034939465 -0.031780157 0.056475606
0.035354763 -0.06775654 -0.007331049 0.039056174 0.042249482 -0.0031375047 -0.043776378 -0.0033114357
0.027140943 0.007779227 -0.008961493 0.0373539 -0.055116925 0.051765084 -0.016989581 -0.013612764
0.03713178 0.017458152 -0.033915002 -0.026379103 0.053491525 -0.017285664 0.09194376 0.013034451
0.012207774 0.058435768 0.050680798 0.0039591403 -0.019307839 -0.055247955 -0.0023965528 -0.029737644
0.05911409 0.032365758 0.067438826 0.024156304 0.01564497 0.07189566 -0.0026190358 0.04253288
0.01315981 -0.04403327 -0.008489568 -0.0012611888 0.043978807 -0.023844728 -0.04408463 0.046294384
0.05789656 -0.012989461 0.017953683 0.014664789 0.023543386 0.03125742 0.028959338 0.016594922
0.06469667 -0.025800807 0.03886369 -0.025461048 0.014257236 0.014862275 0.057723124 0.01652049
-0.013961115 0.06101371 0.037887298 -0.019188836 0.06704878 -0.03536336 0.0629374 0.04248491
0.009511362 -0.020113623 0.011046524 -0.032187145 -0.025011646 0.035488293 0.080265075 -0.051389247
-0.0018264957 0.008804285 0.049843524 0.05659492 0.037722148 -0.026835209 0.0728826 0.03274665
0.019408938 0.0838158 0.025099935 -0.049434002 -0.061142527 0.043628506 -0.011406742 0.035482027
-0.030637616 -0.006324789 0.008357116 0.025036683 0.046267178 0.07276716 -0.008188049 -0.010823747
00000000: 3111 99bc f577 1b3d 0f06 a63c 9633 b7bc
00000010: e5b2 593d 19da 8bbd 2ede 99bc b960 1c3d
00000020: 8c29 39bb d54b 1cbd 4924 733d 7a79 1bbd
00000030: fb1f 903d 270f 283c 10c8 93bc 7551 e43c
00000040: 73fe 16bd decc 63bd 2952 923d 50b3 0a3d
00000050: ab40 9c3c b2fa 643b e92b 02bd f752 673d
00000060: 28d0 103d f1c3 8abd 4c39 f0bb 5ef9 1f3d
00000070: cb0d 2d3d 989e 4dbb dc4e 33bd ac04 59bb
00000080: af56 de3c e3e8 fe3b 3ad3 12bc 6700 193d
00000090: 49c2 61bd a007 543d bc2d 8bbc 1208 5fbc
000000a0: 7e17 183d 6604 8f3c 75ea 0abd fd18 d8bc
000000b0: ee19 5b3d aa9a 8dbc 034d bc3d 738e 553c
000000c0: 1e03 483c 585a 6f3d ab96 4f3d adbb 813b
000000d0: 792b 9ebc ae4b 62bd 7c0f 1dbb 5c9c f3bc
000000e0: 9e21 723d f591 043d 5e1d 8a3d 71e3 c53c
000000f0: e129 803c 083e 933d 21a4 2bbb f536 2e3d
00000100: 3e9c 573c 3b5c 34bd d417 0bbc 794e a5ba
00000110: 1f23 343d 0556 c3bc 1692 34bd 2e9f 3d3d
00000120: f124 6d3d c0d1 54bc 9a13 933c 9544 703c
00000130: 0fde c03c c807 003d 223c ed3c 13f2 873c
00000140: b07f 843d 375c d3bc 882f 1f3d b093 d0bc
00000150: 2f97 693c e680 733c 156f 6c3d fb55 873c
00000160: 29bd 64bc 83e9 793d b62f 1b3d e831 9dbc
00000170: df50 893d 2cd9 10bd 53e5 803d a804 2e3d
00000180: 8bd5 1b3c 53c5 a4bc 7bfc 343c abd6 03bd
00000190: 39e5 ccbc 2c5c 113d 0462 a43d 887d 52bd
000001a0: 0767 efba d93f 103c b928 4c3d 13d0 673d
000001b0: 8a82 1a3d 83d5 dbbc 7943 953d 5a21 063d
000001c0: 7eff 9e3c 9ea7 ab3d 619e cd3c 4f7b 4abd
000001d0: 9670 7abd ceb3 323d 58e3 3abc 9a55 113d
000001e0: bdfb fabc 2d40 cfbb 49ec 083c bb19 cd3c
000001f0: a782 3d3d f306 953d 2b27 06bc 1656 31bc

Encoder.mu.2.weight f4 [100, 128]
0.0052803447 0.10132737 0.026790945 0.0033076569 0.053029057 -0.031086093 0.0122649735 -0.0450978
0.02560377 0.06554834 0.07502554 -0.043347355 -0.036802955 -0.04710488 -0.061037783 -0.004296179
-0.09370849 0.010162377 -0.09614218 0.09673861 -0.088275574 0.032296233 -0.09421328 0.09884083
0.0716365 -0.016495248 -0.012621851 -0.041512698 -0.028983677 -0.034758206 0.038536575 0.049818467
-0.071492314 -0.0077879387 -0.015648238 0.038498808 -0.068264954 -0.020661503 0.034412686 0.032872647
-0.027704602 0.048679415 0.05996487 0.022473954 -0.0030410553 0.013037815 -0.04464946 0.073759966
-0.069294155 -0.008922287 -0.029892161 0.039162926 -0.041033614 -0.021754408 -0.04374244 0.046719998
-0.06560987 0.0016193636 0.06337293 -0.08389075 -0.0046052034 0.016976405 -0.0046746936 0.010180256
-0.04571456 -0.018960431 -0.0038796444 0.09308188 -0.053685118 -0.049939107 0.0075535495 -0.029092047
-0.054292936 0.025509592 0.027280532 -0.076467276 -0.03008157 -0.0039685112 0.055565294 0.010247783
0.08531887 -0.014057506 -0.038412847 -0.014343278 -0.018053228 -0.032204736 0.024407245 -0.04879285
-0.04967055 0.043299485 -0.064742096 -0.031937376 0.08377826 0.027310153 0.05254145 -0.02653163
-0.065684 0.03238163 0.01717798 0.08956397 0.017542351 -0.04359147 -0.0008544021 0.17318435
-0.067540295 0.05825794 -0.022159766 0.030522736 -0.075812615 0.017096432 0.010021459 0.10662498
-0.06787636 0.029452028 0.10465735 0.03778851 0.01414119 0.008985281 -0.020187166 -0.019135416
-6.147918e-05 -0.05989009 0.06405878 -0.03403748 0.041598108 -0.058137357 -0.058392752 0.06793898
-0.0665045 -0.058549758 -0.087132625 0.038150996 0.054670632 0.019227164 -0.062056776 0.022665503
0.05058915 0.003938092 0.020160949 0.068048626 0.03679053 0.044439696 0.02564016 -0.04347168
0.02558383 -0.007822166 -0.07194847 -0.053587534 0.0030747387 -0.004619618 0.00012520194 -0.032395355
-0.064014226 0.05387317 0.088179916 0.07154265 0.06546783 0.055224996 -0.03566975 -0.015229301
-0.03262867 -0.020016702 -0.015843606 0.023065604 0.012693502 -0.064444385 0.023163537 0.07922016
0.059651706 -0.033283178 0.021573728 0.067372754 0.010010065 -0.08130823 -0.04894392 -0.06326198
0.0011150067 -0.0073468676 -0.042159844 -0.0552536 -0.00411107 -0.112328626 0.053180188 -0.018519625
0.11756807 0.04925608 -0.003555832 -0.024990879 0.05914328 -0.011559189 0.044483166 0.15138987
-0.08947504 -0.016094193 0.0024744803 -0.09175385 0.024984071 0.10584563 -0.051865976 0.12049394
-0.060856428 -0.015955573 -0.026040005 -0.032426085 0.05575101 -0.012359438 0.07576956 0.03709197
0.004826373 0.0026491145 0.010266231 0.017750973 -0.07757168 0.0706327 0.01081437 0.065751806
-0.0463864 0.03971353 0.00094925304 -0.006665535 -0.011941942 -0.039418105 0.01248375 -0.02686463
-0.05386688 -0.017887706 -0.13860625 0.053636916 0.020254973 -0.024115225 0.16048384 -0.06467332
-0.033748068 -0.031117292 -0.014128112 -0.008666283 -0.017454615 0.037115343 -0.023102544 -0.04953712
0.0418722 0.013563946 -0.056803502 -0.029718822 -0.045985572 -0.0019597479 -0.027532952 -0.045234144
-0.086636685 -0.037406933 0.024596531 -0.07917602 -0.007906229 -0.06225944 -0.024641486 0.010061292
00000000: be06 ad3b b984 cf3d af78 db3c 46c5 583b
00000010: ff34 593d 43a8 febc 07f3 483c 79b8 38bd
00000020: ffbe d13c 353e 863d fea6 993d ff8c 31bd
00000030: b2be 16bd 0cf1 40bd c102 7abd f6c6 8cbb
00000040: 3dea bfbd 1980 263c 31e6 c4bd e41e c63d
00000050: d3c9 b4bd 0e49 043d e4f2 c0bd 106d ca3d
00000060: 28b6 923d 0b21 87bc e1cb 4ebc 3809 2abd
00000070: 2d6f edbc 9f5e 0ebd 87d8 1d3d 730e 4c3d
00000080: 906a 92bd f731 ffbb bc30 80bc edb0 1d3d
00000090: 7fce 8bbd 5042 a9bc 51f4 0c3d 78a5 063d
000000a0: c3f4 e2bc 1164 473d b99d 753d 4c1b b83c
000000b0: 714c 47bb 8f9c 553c 5ae2 36bd 770f 973d
000000c0: 18ea 8dbd c92e 12bc 68e0 f4bc 4e69 203d
000000d0: dd12 28bd 4d36 b2bc 462b 33bd 785d 3f3d
000000e0: 785e 86bd d340 d43a abc9 813d eace abbd
000000f0: 3fe7 96bb 1a12 8b3c 2c2e 99bb 17cb 263c
00000100: 313f 3bbd e852 9bbc a241 7ebb b6a1 be3d
00000110: ede4 5bbd f38c 4cbd c483 f73b 7252 eebc
00000120: 4562 5ebd 7ef9 d03c 6c7b df3c e09a 9cbd
00000130: a06d f6bc 490a 82bb 6f98 633d 51e6 273c
00000140: a9bb ae3d 7451 66bc ca56 1dbd 1100 6bbc
00000150: 5de4 93bc 1de9 03bd b4f1 c73c 03db 47bd
00000160: 5973 4bbd cd5a 313d 8197 84bd c4d0 02bd
00000170: f093 ab3d 8bb9 df3c b435 573d dc58 d9bc
00000180: 5585 86bd 9aa2 043d d6b8 8c3c 516d b73d
00000190: fab4 8f3c f88c 32bd f4f9 5fba 3d57 313e
000001a0: 9152 8abd e19f 6e3d 6688 b5bc d10a fa3c
000001b0: a543 9bbd d10d 8c3c 0c31 243c 335e da3d
000001c0: c302 8bbd 6145 f13c 9856 d63d 20c8 1a3d
000001d0: 73b0 673c 0037 133c 8e5f a5bc e0c1 9cbc
000001e0: 62ee 80b8 504f 75bd 4031 833d e26a 0bbd
000001f0: c762 2a3d 7021 6ebd 3d2d 6fbd 9823 8b3d
00000200: 8333 88bd dfd1 6fbd 9772 b2bd 3844 1c3d
00000210: 50ee 5f3d 4982 9d3c 3f2f 7ebd 01ad b93c
00000220: 9236 4f3d 1c0b 813b 9328 a53c 145d 8b3d
00000230: abb1 163d 6606 363d 500b d23c 5c0f 32bd
00000240: 2e95 d13c 8b28 00bc b859 93bd 9a7e 5bbd
00000250: 8e81 493b 2a60 97bb a448 0339 feb0 04bd
00000260: e419 83bd 1daa 5c3d ac97 b43d f484 923d
00000270: ff13 863d 9b33 623d 721a 12bd 5184 79bc
00000280: a4a5 05bd 11fa a3bc 73ca 81bc 14f4 bc3c
00000290: 68f8 4f3c 6bfb 83bd 75c1 bd3c 2e3e a23d
000002a0: 5955 743d f153 08bd 63bb b03c bafa 893d
000002b0: 4101 243c ee84 a6bd 6b79 48bd 7f8f 81bd
000002c0: 6b25 923a febd f0bb cdaf 2cbd 9951 62bd
000002d0: 28b6 86bb 8d0c e6bd 78d3 593d 78b6 97bc
000002e0: 87c7 f03d bec0 493d f608 69bb acb9 ccbc
000002f0: 3940 723d c162 3dbc fb33 363d f205 1b3e
00000300: b13e b7bd f8d7 83bc e42a 223b 71e9 bbbd
00000310: 65ab cc3c 98c5 d83d 6b71 54bd 87c5 f63d
00000320: 9744 79bd 43b5 82bc d951 d5bc 37d1 04bd
00000330: 2c5b 643d 3e7f 4abc 122d 9b3d c0ed 173d
00000340: 8d26 9e3b c49c 2d3b b233 283c 7d6a 913c
00000350: e7dd 9ebd e1a7 903d c12e 313c e2a8 863d
00000360: aaff 3dbd a8aa 223d 4bd7 783a 8f6a dabb
00000370: 23a8 43bc e174 21bd a488 4c3c 3613 dcbc
00000380: 84a3 5cbd 3d89 92bc ccee 0dbe 62b2 5b3d
00000390: c2ed a53c 4b8d c5bc e055 243e 7273 84bd
000003a0: 6a3b 0abd b1e9 febc 9979 67bc 07fd 0dbc
000003b0: fbfc 8ebc 4206 183d 8c41 bdbc 6fe7 4abd
000003c0: 2f82 2b3d 503b 5e3c caaa 68bd e374 f3bc
000003d0: 5e5b 3cbd 1d6f 00bb c98c e1bc 7047 39bd
000003e0: 936e b1bd 0338 19bd aa7e c93c 0a27 a2bd
000003f0: 2189 01bc c103 7fbd f1dc c9bc 1ed8 243c

Encoder.mu.2.bias f4 [100]
0.019555865 0.05205437 0.031231267 0.07058501 0.07716249 0.03837034 -0.062195078 0.06745588
0.0052611944 0.027056629 -0.068943575 0.0634693 0.0120843975 -0.07787018 -0.06908667 0.084059924
-0.02989974 -0.02930099 -0.015017954 -0.07456616 0.02630084 0.038478125 0.051507693 0.03885114
-0.04013706 0.027868157 0.016569743 0.008499686 -0.023511328 -0.015137546 -0.0012583393 -0.057965484
0.04295334 0.025732102 0.011355002 -0.028292127 -0.0969694 0.02411403 0.04742569 0.0036606241
0.051525135 0.036049895 -0.024438662 -0.06699746 -0.07272765 0.0006661926 0.051193275 0.055578213
-0.0033427123 0.0005126858 -0.02123058 0.005980604 0.05156638 -0.030561559 0.06355153 -0.03357247
0.0071546044 0.034803957 -0.034276333 0.015809977 -0.030848546 -0.08390395 0.056235842 0.104778945
-0.029184308 -0.045741647 -0.054328404 0.046518926 -0.06470185 0.02371306 -0.015200937 0.008198366
0.03994102 -0.06309494 0.055655904 -0.0034063845 -0.00046889606 0.012647572 -0.043195765 0.015973119
-0.05710821 -0.024847955 -0.013676794 -0.020184541 0.06823723 0.061328195 -0.045643862 -0.08074708
0.057418894 -0.029505907 -0.022673465 -0.00810762 0.016984424 -0.043500714 -0.0741915 0.06059532
0.05091195 0.044566892 -0.010968204 0.07487932
00000000: 9f33 a03c f736 553d b7d8 ff3c e08e 903d
00000010: 5e07 9e3d 382a 1d3d 44c0 7ebd 4f26 8a3d
00000020: 1966 ac3b dda5 dd3c 4a32 8dbd 31fc 813d
00000030: a3fd 453c 677a 9fbd 507d 8dbd 9c27 ac3d
00000040: 4df0 f4bc a108 f0bc dd0d 76bc 25b6 98bd
00000050: dc74 d73c 3d9b 1d3d bbf9 523d 5f22 1f3d
00000060: c266 24bd c34b e43c 45bd 873c 4442 0b3c
00000070: d49a c0bc 7803 78bc dcee a4ba 376d 6dbd
00000080: d7ef 2f3d 21cc d23c 550a 3a3c e4c4 e7bc
00000090: e597 c6bd c98a c53c 7141 423d 15e7 6f3b
000000a0: 050c 533d 0ea9 133d 9733 c8bc f735 89bd
000000b0: 3cf2 94bd 6ea3 2e3a 0ab0 513d fba5 633d
000000c0: 6811 5bbb c365 063a c1eb adbc f1f8 c33b
000000d0: 4537 533d 3c5c fabc 4e27 823d 4983 09bd
000000e0: 2c71 ea3b 988e 0e3d 5765 0cbd ed83 813c
000000f0: 17b6 fcbc d6d5 abbd 8e57 663d 5896 d63d
00000100: ee13 efbc 985b 3bbd 7687 5ebd a18a 3e3d
00000110: 6782 84bd e441 c23c 5a0d 79bc 7052 063c
00000120: 3299 233d eb37 81bd 72f7 633d a63d 5fbb
00000130: 2ad6 f5b9 c337 4f3c 0bee 30bd 0fda 823c
00000140: 4cea 69bd f08d cbbc a214 60bc 0d5a a5bc
00000150: f6bf 8b3d 4633 7b3d 0ff5 3abd ba5e a5bd
00000160: 1330 6b3d 5fb6 f1bc b4bd b9bc d3d5 04bc
00000170: eb22 8b3c ce2d 32bd b7f1 97bd cc32 783d
00000180: 0d89 503d c68b 363d fbb3 33bc 545a 993d
